new_data_model.pt (torch, 12213 bytes, 10 tensors)

rate_ch_embedding.weight f4 [11, 4]
0.16985148 0.5639255 0.653664 1.531325 -0.024344588 -1.2631834 0.6506828 -0.87077403
-0.19303195 -0.4474023 0.29061782 0.85024244 -0.057860978 -0.008369249 -0.2457343 -0.06556726
1.4406428 -1.1222835 0.71737784 0.5865377 0.46119234 -0.51652414 -0.46396452 0.3678884
-1.1998844 -0.24306661 1.4149805 0.86443365 -0.26152015 -1.283637 0.861219 -0.1355111
-1.482007 0.67362744 -0.8685614 -0.05801596 -0.42206118 -0.30373666 -0.12300224 1.3895371
-1.273464 -0.49539986 -1.4725152 -0.6153521
00000000: 8ced 2d3e 6c5d 103f 8656 273f 7502 c43f
00000010: 4d6e c7bc feaf a1bf 2693 263f 0ceb 5ebf
00000020: 2baa 45be ea11 e5be dccb 943e 7da9 593f
00000030: a2ff 6cbd 2d1f 09bc c6a1 7bbe 2148 86bd
00000040: fc66 b83f fca6 8fbf 13a6 373f 5627 163f
00000050: 6721 ec3e ed3a 04bf c28c edbe de5b bc3e
00000060: d095 99bf 74e6 78be 151e b53f 864b 5d3f
00000070: f8e5 85be 384e a4bf d978 5c3f 6cc3 0abe
00000080: 68b2 bdbf d972 2c3f 0a5a 5ebf 25a2 6dbd
00000090: 6718 d8be 5f83 9bbe 99e8 fbbd 5adc b13f
000000a0: de00 a3bf 0da5 fdbe 617b bcbf b787 1dbf

rate_dch_embedding.weight f4 [11, 4]
1.9814873 0.26080906 1.1927308 0.088421926 0.6828131 -0.64876676 -0.42354113 2.9647102
-0.06336849 0.45363712 0.4125856 0.26876298 -0.13578212 -1.3913425 -0.56003165 -1.1313255
-0.724614 1.3847578 -1.0620856 0.18009584 -1.3876963 -0.17533107 -0.029690767 0.80963403
-1.0940003 1.6884977 0.5127423 -1.0179876 -0.56527233 -0.2754266 0.0003264736 -0.6291534
0.6019493 -1.4495004 0.77007484 -1.2047794 -0.531033 -1.2433894 -0.24082248 1.756464
-0.57107455 -0.20704326 -0.012914409 -0.5548593
00000000: 60a1 fd3f c488 853e 67ab 983f 8e16 b53d
00000010: d7cc 2e3f 9415 26bf 62da d8be d0bd 3d40
00000020: 57c7 81bd 2043 e83e 6b3e d33e 4d9b 893e
00000030: 780a 0bbe 8317 b2bf 3c5e 0fbf 46cf 90bf
00000040: 4e80 39bf be3f b13f 6cf2 87bf 0b6b 383e
00000050: 08a0 b1bf fd89 33be 0d3a f3bc 2d44 4f3f
00000060: 3408 8cbf b120 d83f 1443 033f 6b4d 82bf
00000070: b0b5 10bf b704 8dbe 8b2a ab39 3210 21bf
00000080: 5919 1a3f 3b89 b9bf a023 453f 3636 9abf
00000090: c7f1 07bf 6227 9fbf 2b9a 76be d0d3 e03f
000000a0: f131 12bf 2603 54be f596 53bc 420b 0ebf

lstm.weight_ih_l0 f4 [64, 10]
0.009965056 -0.100225575 -0.035740145 -0.18421476 -0.026642269 0.2746017 -0.11840652 0.071902
-0.06992969 0.10624856 -0.0130281495 -0.067591965 0.112684235 0.0401727 0.026999185 -0.014935794
0.18910997 0.17283268 0.068458885 0.100592844 0.088072285 0.10103998 -0.056301158 -0.082534805
0.23369232 0.19821048 0.13727635 0.11396584 0.033809293 -0.044969883 0.1080077 -0.06852079
0.11721351 -0.33549133 -0.06505304 -0.044881023 0.23992045 0.042141493 0.14582846 0.28319132
0.070231676 -0.150366 0.175499 0.12065962 -0.14375314 -0.24033508 -0.19065206 -0.11050633
-0.116438724 -0.17850351 0.07434381 0.16610888 0.08502098 -0.058066934 -0.104094416 0.28345478
0.090836816 0.2178176 -0.1745233 -0.18797754 0.12105208 -0.061404135 -0.22426887 0.0575855
-0.0014115459 0.23993322 -0.031365003 0.14445058 0.03554643 0.12233387 -0.08679171 -0.19392258
-0.38087082 0.07892255 -0.10083617 -0.04040805 0.18935643 -0.11335754 -0.25645426 0.23093607
-0.037498932 0.09192481 -0.11048178 0.19251257 -0.12463309 -0.124265224 -0.11837294 -0.1227089
-0.18882474 0.045981728 0.22051185 0.114792466 -0.02111754 -0.25245294 -0.0038384905 -0.053258557
-0.049024966 0.20618397 -0.09631438 -0.0046710186 0.17109458 -0.08186049 0.10968343 0.14484945
0.2287162 -0.1169376 0.043053232 -0.27321604 -0.19377923 0.18600248 -0.25323084 0.32491082
0.08727587 -0.07102068 0.08881437 0.19432394 -0.118126005 -0.05783621 -0.21313833 -0.11759654
-0.1274167 0.18931442 -0.036851753 0.08900698 -0.08562868 -0.09291353 -0.061006393 -0.10301188
0.13741805 -0.11167581 0.17364067 -0.09647072 0.03357891 0.1503319 0.15697338 -0.0069871014
-0.12598225 -0.13177235 -0.13555129 -0.08869259 -0.37196454 0.22838818 -0.20585138 0.31534156
-0.1123207 -0.004650764 0.08390272 0.025169862 -0.21494897 0.10478204 0.15114532 0.23582429
-0.21042912 0.022187842 0.11872677 -0.103652574 -0.09957844 0.076833084 0.010353574 -0.0012008282
0.23192772 0.08670637 -0.1273105 -0.27676564 -0.2038639 -0.076210506 -0.18746527 -0.17188348
-0.27412274 0.10415525 0.15795258 -0.00587967 0.02504283 0.10424618 -0.08048353 0.09677346
0.0035516715 0.13556406 0.11242503 0.17631063 0.16796827 0.08391056 -0.07782153 -0.21721566
-0.11749608 -0.12910762 0.118422456 -0.018019827 -0.18982588 0.23644122 0.20005557 0.38177782
-0.08683681 -0.104479305 -0.033434328 -0.09953854 0.30527464 -0.29765168 -0.36759508 -0.047223445
-0.20499724 0.13302901 0.06023075 0.14558995 -0.26742032 -0.10964164 0.12993124 -0.04821813
0.03191813 -0.2825857 -0.094912685 -0.008474338 0.16120347 0.21050984 -0.080796406 0.2848298
-0.15210359 0.06218355 0.027685689 0.247445 -0.10837209 -0.041514706 0.1367546 -0.045934014
0.06628485 -0.015894305 0.096839204 0.17218077 0.028979557 -0.18633497 -0.048596594 -0.11190877
-0.17133643 -0.12977105 0.023410883 -0.049864776 -0.15838835 -0.2637599 -0.0005054598 0.21246262
-0.18021826 0.30009598 0.027507082 0.14433886 -0.09892869 -0.08772028 -0.026651116 0.08288034
0.10128218 0.019792413 0.46814165 0.119961135 0.10709035 0.14745589 -0.042983864 -0.018210875
00000000: 7944 233c 1143 cdbd 4264 12bd cba2 3cbe
00000010: e340 dabc 9898 8c3e 1e7f f2bd 5b41 933d
00000020: 4c37 8fbd d898 d93d 0574 55bc a86d 8abd
00000030: fec6 e63d 218c 243d 652d dd3c 43b5 74bc
00000040: 0ba6 413e 0dfb 303e 2c34 8c3d 9f03 ce3d
00000050: 3e5f b43d 0dee ce3d 0b9c 66bd 0208 a9bd
00000060: 0a4d 6f3e b0f7 4a3e 2c92 0c3e ec66 e93d
00000070: 9d7b 0a3d 5732 38bd 2433 dd3d a154 8cbd
00000080: a30d f03d 85c5 abbe 873a 85bd 2ad5 37bd
00000090: b5ad 753e 8f9c 2c3d 0e54 153e 74fe 903e
000000a0: a0d5 8f3d 8bf9 19be 03b6 333e 641c f73d
000000b0: 0634 13be 661a 76be 4b3a 43be 2551 e2bd
000000c0: 6d77 eebd a0c9 36be 9141 983d 7218 2a3e
000000d0: 7b1f ae3d 98d7 6dbd 742f d5bd fc20 913e
000000e0: a708 ba3d 940b 5f3e 3cb6 32be 2f7d 40be
000000f0: 27ea f73d e782 7bbd bda6 65be c6de 6b3d
00000100: 9f03 b9ba 0eb1 753e 9778 00bd daea 133e
00000110: 2299 113d 2e8a fa3d dabf b1bd a493 46be
00000120: 8001 c3be 25a2 a13d 3283 cebd e982 25bd
00000130: a7e6 413e ff27 e8bd f94d 83be 817a 6c3e
00000140: 7b98 19bd 1343 bc3d 4544 e2bd 0422 453e
00000150: a23f ffbd c47e febd 836d f2bd ce4e fbbd
00000160: 465b 41be 5657 3c3d dccd 613e 5018 eb3d
00000170: b1fe acbc 8341 81be 2f8f 7bbb a525 5abd
00000180: 67ce 48bd e421 533e 7940 c5bd 580f 99bb
00000190: 6b33 2f3e 79a6 a7bd b5a1 e03d 6a53 143e
000001a0: 9434 6a3e fb7c efbd 9658 303d f9e2 8bbe
000001b0: 106e 46be 6f77 3e3e 79a7 81be b65a a63e
000001c0: b1bd b23d 4a73 91bd 4fe4 b53d dbfc 463e
000001d0: 0cec f1bd a9e5 6cbd ef40 5abe 74d6 f0bd
000001e0: 8679 02be a4db 413e ddf1 16bd 4b49 b63d
000001f0: 175e afbd 7349 bebd d7e1 79bd e4f7 d2bd
00000200: 51b7 0c3e 49b6 e4bd dcce 313e 7192 c5bd
00000210: 0a8a 093d 9bf0 193e a1bd 203e 0ef4 e4bb
00000220: 7e01 01be 55ef 06be f5cd 0abe 76a4 b5bd
00000230: 2372 bebe 97de 693e b4ca 52be 7374 a13e
00000240: 6508 e6bd 7065 98bb 30d5 ab3d 0731 ce3c
00000250: 951b 5cbe f797 d63d d7c5 1a3e ec7b 713e
00000260: bb7a 57be 47c3 b53c 0527 f33d cd47 d4bd
00000270: c8ef cbbd aa5a 9d3d 09a2 293c 1c65 9dba
00000280: 767e 6d3e 1c93 b13d af5d 02be 3ab4 8dbe
00000290: b3c1 50be 4114 9cbd e5f6 3fbe 3902 30be
000002a0: d159 8cbe 594f d53d 52be 213e 3faa c0bb
000002b0: 9f26 cd3c 057f d53d 8dd4 a4bd 2a31 c63d
000002c0: 29c3 683b 4ed1 0a3e 183f e63d c68a 343e
000002d0: e0ff 2b3e 4dd9 ab3d e560 9fbd c86d 5ebe
000002e0: c9a1 f0bd ca34 04be 7987 f23d 519e 93bc
000002f0: b761 42be a61d 723e 5edb 4c3e 6278 c33e
00000300: 7fd7 b1bd 3ff9 d5bd 6ff2 08bd ddda cbbd
00000310: f54c 9c3e cd65 98be 6c35 bcbe 5f6d 41bd
00000320: ccea 51be c238 083e 85b4 763d 8815 153e
00000330: 51eb 88be cc8b e0bd b20c 053e 6080 45bd
00000340: 96bc 023d 13af 90be 9561 c2bd f3d7 0abc
00000350: 8612 253e e48f 573e 9678 a5bd 36d5 913e
00000360: 0bc1 1bbe 2eb4 7e3d 19cd e23c 3962 7d3e
00000370: 30f2 ddbd 530b 2abd 6609 0c3e 4e25 3cbd
00000380: 5ac0 873d c634 82bc a253 c63d 2850 303e
00000390: 8966 ed3c 98ce 3ebe 390d 47bd 6d30 e5bd
000003a0: d172 2fbe b4e2 04be 2ec8 bf3c 023f 4cbd
000003b0: 8e30 22be 8a0b 87be d580 04ba cd8f 593e
000003c0: 238b 38be 2ea6 993e 8856 e13c 91cd 133e
000003d0: 209b cabd b1a6 b3bd 7153 dabc 2bbd a93d
000003e0: 086d cf3d b323 a23c 43b0 ef3e 2fae f53d
000003f0: 2f52 db3d adfe 163e d90f 30bd f92e 95bc

lstm.weight_hh_l0 f4 [64, 16]
-0.14012422 0.16659108 0.28856447 0.104447335 -0.23984306 0.07801719 0.099061266 0.0044035
-0.032995872 0.17145993 -0.15932538 -0.27196276 -0.19730386 0.045720458 0.008540547 0.26725146
0.05626182 0.053236853 -0.013745685 0.06966456 0.15624227 -0.1835754 -0.16488619 0.23478152
-0.14303999 -0.052492734 0.15170504 0.15688194 -0.05226609 0.12754826 -0.13586423 -0.05319132
0.041774813 -0.104191035 -0.0379406 0.11890334 -0.094136864 0.007654177 0.01635075 0.08711303
-0.007643797 0.11601651 -0.1763111 0.014090837 0.104757175 0.07194754 0.20018911 -0.0348383
-0.17921998 -0.20132162 0.19382627 0.38897523 0.104349904 -0.1556254 0.13011414 0.19062468
-0.044720177 0.14649056 0.058828376 0.10641347 0.156949 -0.0086676655 0.2507428 0.06442106
-0.06147032 0.0057728332 -0.17900065 -0.044938218 0.054139715 -0.29260832 0.090179354 -0.23962463
0.17076325 -0.22219831 -0.06364356 0.19024195 -0.12219999 -0.13092695 -0.25664043 -0.11819966
0.23997447 -0.01740934 -0.07422248 0.0152139235 0.2148308 -0.112607256 0.20367262 0.11143415
-0.15382598 -0.056274634 -0.2160124 0.06345182 -0.06843697 0.064095065 -0.050512888 0.07418109
-0.067491144 0.040058218 -0.07781032 0.16949138 -0.15807061 0.066114135 -0.19374776 0.115686774
0.11020208 -0.16026075 -0.13744964 -0.2470728 0.030996112 0.26917145 -0.28342497 -0.14699857
0.06503208 -0.012509016 0.21242186 0.10211469 0.21040393 0.24524112 0.28081837 0.088807516
-0.1682679 0.06628862 0.015760478 -0.31625074 -0.39002118 0.26496503 -0.3786765 0.20720914
0.19683963 -0.21288337 0.27324554 0.0031428358 -0.06974307 -0.046473395 0.15809192 -0.012105831
-0.16467476 -0.16824383 -0.03525429 -0.12183428 0.12145749 -0.2822128 -0.18353464 -0.18049671
-0.2371837 0.22386843 -0.11492645 0.13784473 0.07201136 0.094923176 -0.1330665 0.4655589
-0.10870035 0.28674057 0.12037296 -0.25518453 -0.23613569 -0.33600223 -0.3368789 0.09970754
-0.11439816 -0.016587911 0.2421839 -0.2598569 -0.19087465 0.24156396 0.17849907 0.092596106
-0.16127552 0.078092575 -0.17502275 -0.11762185 -0.21282643 -0.23960933 0.036859684 -0.16730985
-0.23937285 -0.22389963 -0.18291779 -0.09787857 -0.16877478 0.17220564 0.098001495 -0.2732117
0.14406899 0.26680523 0.18841004 0.06393392 -0.2122147 -0.1587636 -0.014417363 -0.19436203
-0.07425317 0.07862173 0.18343003 -0.33462545 -0.1312662 0.085500866 -0.3658338 -0.23868828
-0.1961565 -0.032733 0.17054227 -0.21586117 0.10873882 -0.10369081 0.2364312 -0.20237772
0.16417211 -0.10614574 0.031636707 0.21262172 -0.20830023 -0.016751613 -0.20151046 0.1753984
0.26918224 -0.23128967 0.20844854 0.21997657 0.10526102 0.2605698 0.022904992 0.23092504
-0.069659896 0.05349043 -0.2028972 -0.19992977 0.15628502 -0.08564247 -0.12392906 -0.16065258
-0.27791813 0.18850392 0.09721487 -0.09767289 -0.17598198 0.18363325 0.088020764 -0.09666377
0.12949619 -0.16636483 0.039801016 -0.0086356485 0.05084025 -0.06642185 -0.1963819 -0.18983904
-0.049875464 -0.030718315 0.22725165 0.16695441 -0.03826334 0.035428815 -0.20633106 0.21648468
00000000: b97c 0fbe da96 2a3e b9be 933e 7ce8 d53d
00000010: 6b99 75be 7ac7 9f3d a2e0 ca3d 3c4b 903b
00000020: ae26 07bd 3193 2f3e 3126 23be b43e 8bbe
00000030: 060a 4abe 6045 3b3d a7ed 0b3c 2fd5 883e
00000040: cb72 663d e30e 5a3d 9535 61bc 4bac 8e3d
00000050: f9fd 1f3e 31fb 3bbe edd7 28be 916a 703e
00000060: 1379 12be 9f02 57bd 9158 1b3e a9a5 203e
00000070: f814 56bd 039c 023e fe1f 0bbe 24df 59bd
00000080: 111c 2b3d 1c62 d5bd 9a67 1bbd 9883 f33d
00000090: d4ca c0bd e4cf fa3b 02f2 853c 5168 b23d
000000a0: d178 fabb 109a ed3d e68a 34be 41dd 663c
000000b0: ee8a d63d 3b59 933d 60fe 4c3e 9bb2 0ebd
000000c0: 7185 37be 4127 4ebe 657a 463e c327 c73e
000000d0: 67b5 d53d 445c 1fbe a43c 053e 1e33 433e
000000e0: 812c 37bd 9f01 163e 06f6 703d 4eef d93d
000000f0: 3db7 203e d302 0ebc 5c61 803e 30ef 833d
00000100: 4dc8 7bbd 092a bd3b f24b 37be 2311 38bd
00000110: 9bc1 5d3d c2d0 95be f4af b83d 2960 75be
00000120: 90dc 2e3e f487 63be 8e57 82bd c9ce 423e
00000130: fd43 fabd b711 06be 6066 83be aa12 f2bd
00000140: debb 753e 089e 8ebc f501 98bd d243 793c
00000150: 9bfc 5b3e a29e e6bd 8e8f 503e 9637 e43d
00000160: 8f84 1dbe 3b80 66bd 5b32 5dbe 07f3 813d
00000170: af28 8cbd 4644 833d 9ae6 4ebd 41ec 973d
00000180: cc38 8abd 1614 243d 045b 9fbd 268f 2d3e
00000190: 43dd 21be d966 873d d065 46be 30ed ec3d
000001a0: a1b1 e13d 651b 24be 99bf 0cbe a700 7dbe
000001b0: 8feb fd3c d7d0 893e 141d 91be cb86 16be
000001c0: 8a2f 853d 9ef2 4cbc 1e85 593e 8221 d13d
000001d0: 2174 573e 7d20 7b3e 6dc7 8f3e b7e0 b53d
000001e0: 6c4e 2cbe 54c2 873d 1e1c 813c 9eeb a1be
000001f0: dbb0 c7be 7fa9 873e e3e1 c1be a22e 543e
00000200: 5490 493e 19fe 59be d7e6 8b3e 09f8 4d3b
00000210: 74d5 8ebd e35a 3ebd d9e2 213e 8957 46bc
00000220: 80a0 28be 1c48 2cbe cd66 10bd 4084 f9bd
00000230: b4be f83d 327e 90be 81f0 3bbe 21d4 38be
00000240: 49e0 72be c43d 653e 8f5e ebbd 2b27 0d3e
00000250: b17a 933d 1567 c23d 9642 08be bc5d ee3e
00000260: 4a9e debd a9cf 923e 1986 f63d 8ca7 82be
00000270: 8ecd 71be 7c08 acbe 647b acbe 7733 cc3d
00000280: 9549 eabd 5fe3 87bc 0eff 773e f70b 85be
00000290: a574 43be 8b5c 773e 76c8 363e 07a3 bd3d
000002a0: 6925 25be 00ef 9f3d 2a39 33be b9e3 f0bd
000002b0: 2cef 59be 265c 75be 2efa 163d 4653 2bbe
000002c0: 281e 75be f245 65be cd4e 3bbe 8f74 c8bd
000002d0: 4cd3 2cbe ad56 303e 02b5 c83d 67e2 8bbe
000002e0: d286 133e b29a 883e 90ee 403e c9ef 823d
000002f0: cf4e 59be ed92 22be ce36 6cbc d706 47be
00000300: 0c12 98bd 6e04 a13d 15d5 3b3e 0754 abbe
00000310: a66a 06be 141b af3d 914e bbbe b36a 74be
00000320: 40dd 48be 0a13 06bd a2a2 2e3e b60a 5dbe
00000330: 75b2 de3d d95b d4bd 051b 723e 1b3c 4fbe
00000340: bc1c 283e f062 d9bd 7e95 013d 82b9 593e
00000350: a84c 55be ae3a 89bc c258 4ebe a39b 333e
00000360: 41d2 893e 33d7 6cbe 8973 553e 8a41 613e
00000370: 1793 d73d 6869 853e 40a3 bb3c 9d77 6c3e
00000380: d9a9 8ebd c818 5b3d 49c4 4fbe 64ba 4cbe
00000390: 2e09 203e 5265 afbd 85ce fdbd 1c82 24be
000003a0: 494b 8ebe 2c07 413e 9718 c73d b908 c8bd
000003b0: 9f34 34be 5b0a 3c3e 3b44 b43d a8f7 c5bd
000003c0: a69a 043e 8b5b 2abe 6406 233d 897c 0dbc
000003d0: de3d 503d 2e08 88bd 5618 49be 2a65 42be
000003e0: 374a 4cbd faa4 fbbc a8b4 683e 19f6 2a3e
000003f0: 05ba 1cbd ce1d 113d 7348 53be 29ae 5d3e

lstm.bias_ih_l0 f4 [64]
-0.09427077 0.22136402 0.03630563 0.17467229 -0.08893842 -0.15438418 -0.23576722 0.021133978
0.16117257 -0.064342074 -0.1805902 -0.13619252 0.16371995 0.11737515 -0.19236907 0.06630794
0.1440691 -0.12186193 -0.11772042 -0.030544378 -0.03896111 -0.023895781 -0.028620483 -0.16627932
-0.1486494 -0.023549344 0.026311295 0.045508076 -0.023918705 -0.03965653 0.20416091 0.1759447
-0.038296193 0.16503198 -0.14923196 -0.18182656 0.17449974 -0.16621411 0.1188566 -0.087115854
0.19219643 0.0034337551 0.06707587 -0.017044157 0.14289217 -0.021266446 0.18257613 -0.102685414
0.10769187 -0.012438844 0.27471915 0.017460858 -0.10718764 -0.22488716 -0.2680609 0.030836916
-0.035942826 -0.07376431 -0.08850728 0.13577005 -0.013507541 0.093430355 0.005421184 0.09784125
00000000: 0911 c1bd 40ad 623e 36b5 143d 4bdd 323e
00000010: 5925 b6bd e316 1ebe f66c 71be 2a21 ad3c
00000020: 6c0a 253e c7c5 83bd a3ec 38be 0d76 0bbe
00000030: 34a6 273e 6262 f03d 66fc 44be 75cc 873d
00000040: da86 133e bf92 f9bd 6717 f1bd 3438 fabc
00000050: af95 1fbd 16c1 c3bc 8175 eabc 2045 2abe
00000060: 8c37 18be 8eea c0bc c98a d73c ad66 3a3d
00000070: 29f1 c3bc e36e 22bd 8f0f 513e d92a 343e
00000080: 78dc 1cbd 25fe 283e 43d0 18be be30 3abe
00000090: 0fb0 323e 0834 2abe 176b f33d cc69 b2bd
000000a0: 24cf 443e da08 613b 135f 893d 30a0 8bbc
000000b0: 5352 123e f836 aebc 3df5 3a3e bb4c d2bd
000000c0: 8e8d dc3d 4bcc 4bbc fda7 8c3e 130a 8f3c
000000d0: 3285 dbbd d248 66be 473f 89be b39d fc3c
000000e0: c938 13bd be11 97bd 4e43 b5bd 4e07 0b3e
000000f0: bc4e 5dbc 6a58 bf3d 30a4 b13b fe60 c83d

lstm.bias_hh_l0 f4 [64]
-0.053404137 -0.16366467 0.24478939 0.23130356 -0.14648302 0.021611834 -0.09253287 0.07648907
-0.07492382 0.08997237 -0.10233 -0.18743284 -0.16928779 -0.040319577 0.0072535104 0.19390951
0.2936004 0.27161264 0.21700068 0.17844708 -0.05142119 0.06996049 0.014339503 0.28091177
-0.04535433 0.24102855 0.002244646 0.05559012 0.08049041 -0.07040119 -0.23836555 -0.080967866
-0.2028833 -0.16465358 0.26258364 0.22871052 -0.07120859 -0.12058754 -0.15614375 -0.22723474
-0.019816026 -0.033688396 -0.29838905 -0.2605076 0.1811176 -0.16126655 0.0011919353 0.14683099
0.10194638 0.052472074 -0.100708075 0.37083766 0.046312563 -0.0074271522 0.037121862 -0.13920848
-0.13482906 0.10920894 0.0118328445 0.3272223 0.11783534 0.13712259 -0.17119229 0.0992598
00000000: 4cbe 5abd b697 27be 12aa 7a3e d7da 6c3e
00000010: a5ff 15be 4d0b b13c e081 bdbd 4da6 9c3d
00000020: a971 99bd 6f43 b83d 6492 d1bd 65ee 3fbe
00000030: c759 2dbe 2426 25bd dbae ed3b 3790 463e
00000040: cb52 963e d010 8b3e 6d35 5e3e d5ba 363e
00000050: 079f 52bd 7247 8f3d 3cf0 6a3c abd3 8f3e
00000060: 76c5 39bd 30d0 763e e91a 133b 77b2 633d
00000070: 28d8 a43d 802e 90bd 1916 74be 7bd2 a5bd
00000080: a4c0 4fbe f39a 28be 5d71 863e 1733 6a3e
00000090: cfd5 91bd 9af6 f6bd 26e4 1fbe 39b0 68be
000000a0: 3855 a2bc d8fc 09bd 73c6 98be 4161 85be
000000b0: e476 393e 0f23 25be b63a 9c3a dd5a 163e
000000c0: 44c9 d03d f5ec 563d 0940 cebd 6fde bd3e
000000d0: 3eb2 3d3d 785f f3bb 180d 183d ab8c 0ebe
000000e0: a110 0abe f0a8 df3d 8cde 413c ae89 a73e
000000f0: a853 f13d dd69 0c3e 084d 2fbe b948 cb3d

fc.weight f4 [2, 16]
-0.34217954 -0.2273314 0.014280002 0.21149957 -0.1773001 -0.013653864 0.2068308 0.28255168
-0.04247411 0.37110198 -0.074101016 -0.030276632 0.16304837 0.15215164 0.0626387 0.0883062
0.21623172 -0.026257006 0.2435245 -0.122048825 -0.15777373 0.19306113 0.1151141 -0.20547996
-0.21457964 0.09791237 -0.20763719 -0.28087604 -0.1747603 0.18507649 -0.29084563 0.10095807
00000000: 2832 afbe 90c9 68be abf6 693c 5893 583e
00000010: 288e 35be 75b4 5fbc 74cb 533e 9daa 903e
00000020: 55f9 2dbd 1401 be3e 46c2 97bd b306 f8bc
00000030: 27f6 263e a4cd 1b3e b848 803d e2d9 b43d
00000040: d96b 5d3e ef18 d7bc 7d5e 793e bcf4 f9bd
00000050: 708f 21be d1b1 453e f1c0 eb3d 5769 52be
00000060: c4ba 5bbe 4886 c83d d89e 54be fcce 8fbe
00000070: 5df4 32be b184 3d3e b8e9 94be 1bc3 ce3d

fc.bias f4 [2]
-0.1732589 -0.1360234
00000000: c86a 31be b849 0bbe

time_fc.weight f4 [5, 20]
0.09750141 0.17309009 -0.16297774 -0.17699264 -0.18389726 -0.1363595 0.15745327 0.11969598
-0.052401472 -0.16462806 -0.19299823 0.07782259 -0.045036603 0.2119978 -0.21668348 0.10737949
0.21863164 -0.057514254 -0.14494117 -0.07623698 -0.071789935 0.08974715 -0.07434086 -0.17181852
-0.21352501 -0.19322431 -0.05171764 0.043842815 -0.10406015 -0.13755462 0.032128245 -0.061268646
-0.09647958 0.12297546 -0.19821438 -0.15117222 -0.1614671 -0.09887238 0.0809455 -0.1610875
0.08917258 -0.2152052 0.088275045 -0.21274261 -0.0009942424 -0.0009741971 0.022239586 0.20654303
-0.10612202 -0.12624861 -0.16012344 -0.11782025 0.05660571 -0.19381028 0.02511745 -0.11190203
0.10850509 -0.021311477 0.13904323 0.11274673 0.029818716 -0.02004969 0.08556264 -0.06772001
-0.15392554 -0.1233088 -0.0012159938 -0.15018074 -0.10055054 -0.14750683 0.10277954 -0.22133596
-0.2229465 -0.22125003 0.1146561 -0.1463248 0.11774867 0.05568312 0.15442571 -0.08993982
-0.15793514 0.0123869395 0.07105897 -0.06422315 -0.015066189 -0.18684275 -0.13880228 0.18072645
-0.18329783 -0.046634924 -0.026387075 0.027554128 0.09596554 -0.007729469 0.18695198 -0.13426745
-0.18064755 0.112066835 -0.15499035 -0.20098154
00000000: d2ae c73d 873e 313e a3e3 26be 8f3d 35be
00000010: 904f 3cbe d3a1 0bbe 6e3b 213e 2a23 f53d
00000020: eda2 56bd 4294 28be 54a1 45be 7361 9f3d
00000030: 4d78 38bd f415 593e 46e2 5dbe c7e9 db3d
00000040: f9e0 5f3e 1194 6bbd 756b 14be 2222 9cbd
00000050: 9a06 93bd 5bcd b73d 0540 98bd 32f1 2fbe
00000060: 4da6 5abe 98dc 45be e0d5 53bd 8694 333d
00000070: 7d1d d5bd 1edb 0cbe e898 033d d5f4 7abd
00000080: 1697 c5bd 8fda fb3d b6f8 4abe e4cc 1abe
00000090: a257 25be 9a7d cabd c1c6 a53d 1ff4 24be
000000a0: 1da0 b63d c05e 5cbe 8cc9 b43d 33d9 59be
000000b0: 3d51 82ba 4361 7fba cb2f b63c 0480 533e
000000c0: 8056 d9bd 5147 01be 66f7 23be be4b f1bd
000000d0: 64db 673d 3476 46be 1cc3 cd3c e42c e5bd
000000e0: eb37 de3d 6895 aebc 5961 0e3e c2e7 e63d
000000f0: 6146 f43c 3f3f a4bc 773b af3d cab0 8abd
00000100: a89e 1dbe 5389 fcbd fb61 9fba fbc8 19be
00000110: 71ed cdbd 080c 17be 147e d23d e5a5 62be
00000120: 164c 64be 5e8f 62be d1d0 ea3d 2bd6 15be
00000130: 3726 f13d fc13 643d c621 1e3e 5e32 b8bd
00000140: c0b9 21be 97f2 4a3c 5e87 913d 6d87 83bd
00000150: 2dd8 76bc b553 3fbe 2f22 0ebe 5b10 393e
00000160: 6db2 3bbe 4304 3fbd b529 d8bc 32b9 e13c
00000170: 9589 c43d 7c47 fdbb 5770 3f3e 687d 09be
00000180: acfb 38be 4c83 e53d cab5 1ebe 1bce 4dbe

time_fc.bias f4 [5]
-0.021934455 0.22235261 -0.14209792 -0.1330046 0.21913418
00000000: e3af b3bc 67b0 633e 1e82 11be 5c32 08be
00000010: b664 603e
